model_weights.npz (npz, 421910 bytes, 4 tensors)

W1 f8 [400, 128]
0	0x3f89a116a535f4f1	0.012514283100922148
1	0xbf9016d6dbc84e86	-0.01571212498136145
2	0xbf6fcac0250403e4	-0.003880858690650234
3	0x3f8416ed8e19f1e0	0.009809356593216856
4	0x3f840039ab551dd4	0.00976605466952566
5	0xbf5364359c759e12	-0.0011835597559527494
6	0x3f5c57b807844443	0.001729898182081039
7	0x3f6fb887ecb1be50	0.0038721709038822896
8	0x3f72a02f3e4746a0	0.0045472951355393365
9	0x3f6c568a0f6c651b	0.0034592339028561964
10	0xbf7e770519f7d085	-0.007437724997988342
11	0xbf46a42a74e16449	-0.0006909568126146705
12	0xbf65d5e993441147	-0.0026654779450174
13	0x3f56dd508cb561c5	0.0013955389611820395
14	0x3f73c8941a09c9ba	0.004829958460151601
15	0xbf7f6da74c8528c9	-0.007672933112482913
16	0x3f70cc80ccbe49ea	0.0041012793771124465
17	0xbf8bd075139ed089	-0.013581194554582747
18	0xbf655f148f2fde9e	-0.002608814387254756
19	0xbf73a1431c940078	-0.00479246345025796
20	0x3f77f18c5b01e495	0.0058455927502275755
21	0x3f75b50d56cc4052	0.00529961786811846
22	0xbf7e7287f4b9648e	-0.007433444097466281
23	0xbf8924cfa2d1a125	-0.012277242809617459
24	0x3f61b3eec49b8c43	0.002160993903872506
25	0xbf99c262e438f1a4	-0.02515558736762248
26	0xbf91a86aab64c547	-0.01724402114013415
27	0x3f31b94c4d7eb174	0.0002704440389560616
28	0x3f7c0c2ecc2108ca	0.006847555925619095
29	0xbf8cbd441b7a0816	-0.01403287133075896
30	0x3f81353c95f39d97	0.008402322126541501
31	0xbf8431145775ffcb	-0.009859236640067956
32	0xbf98c500b10c8877	-0.024189005666933796
33	0x3f7c57871adbd332	0.0069194104705630356
34	0x3f7d3d2c4c77f591	0.0071384172838383645
35	0x3f80d0e5748ee8b8	0.008210938090872907
36	0xbf7db8ba0dd38aad	-0.0072562473044139155
37	0xbf8fd90899df28a7	-0.015550677486221366
38	0x3f7873eb6ca3f8ad	0.005969924570534396
39	0xbf7b50333730d58d	-0.006668281613248961
40	0x3f44a01361770ed2	0.0006294340736805132
41	0xbf76a4cf8a64823f	-0.0055282694868599705
42	0x3f718fa53b711510	0.004287381590136322
43	0xbf9966539fad6378	-0.024804407711914916
44	0x3f73aa4d84bf44b7	0.004801085287867205
45	0x3f6662d84cbfa693	0.0027326798062759588
46	0xbf47a1848bff2e32	-0.0007211587144352936
47	0x3f7684aae0f11ac5	0.005497615332450583
48	0x3f5750c6c1ca55ca	0.0014230671869531635
49	0x3f7c9467ecfb9b6a	0.0069774684522830675
50	0xbf7557c4a22cc6f6	-0.005210655307381398
51	0x3f947f3daaec8800	0.020016635472650535
52	0xbf84e7c015d43a13	-0.010207653680962136
53	0xbf8edfceb1be1943	-0.015075316237709862
54	0x3f8161df732d951a	0.008487458898978551
55	0x3f7799ab0d2b9080	0.005761783761702444
56	0x3f551772da5006fa	0.0012873288735594777
57	0x3f99a83b8f8c3f01	0.02505581916471922
58	0x3f7247e465fdf896	0.004463092976832913
59	0xbf5b41825856e5e4	-0.0016635678197033316
60	0x3f45d0f3c30a4da3	0.0006657781833205211
61	0xbf63b661b665260c	-0.0024063023039715466
62	0xbf78dedb3f6d7fd7	-0.006071907459812529
63	0x3f88097195055edb	0.011736762390384061
64	0xbf863d2f45e7905e	-0.01085888797837969
65	0x3f42dcee935c263f	0.0005756535453837543
66	0x3f81ebd4f81251bf	0.008750594921630104
67	0xbf7845c011d5694c	-0.005925894043082924
68	0xbf71b5f9ebbae6c0	-0.00432393670387804
69	0x3f8a8c07e4a190c0	0.012962400116699135
70	0x3f5988308f99f0e9	0.0015583490589099974
71	0x3f6366c024eb9323	0.0023683312241352824
72	0xbf8c172485ca2fe4	-0.013716016133251636
73	0x3f852e82e5a77eec	0.010342619546406216
74	0xbf83718d1cd069b1	-0.00949392551597303
75	0xbf7392de41320f68	-0.004778736288361653
76	0x3f56ec3416317000	0.0013990887316799316
77	0xbf83e3291463c8df	-0.009710617956873722
78	0x3f3cc4087f8f3317	0.0004389305827857
79	0x3f65f5d405310b52	0.0026806965848051112
80	0x3f8c91371ee4abe0	0.013948851232802484
81	0xbf8c8a132654c57f	-0.013935231787942424
82	0xbf8a6f0be376fe07	-0.012907116774726125
83	0xbf61e81192fd1b80	-0.002185854267654219
84	0x3f797548dbbd3a25	0.006215366938546772
85	0xbf8c2a833d01e755	-0.013752961444186399
86	0x3f7018a600437e33	0.003929756585619826
87	0x3f721a4e4d0435c8	0.004419618475606631
88	0xbf6ac8c91b229bc8	-0.0032695701457501093
89	0xbf93f03a25608b1e	-0.01947108128673413
90	0xbf7436f4fd7e52a3	-0.004935223572733935
91	0xbf75a149149526c0	-0.005280766935649772
92	0x3f77d05aa128677f	0.005813936254094431
93	0x3f7a67cab70ebbf0	0.006446639877068158
94	0x3f91a92451257b47	0.017246787503036456
95	0xbf7be6fe844f1ef0	-0.0068120901168595566
96	0x3f83eac5f05a771f	0.009725138089659744
97	0x3f6572fc0c2d6b0a	0.0026183054737151145
98	0x3f67ddc44a8f16ba	0.002913363820399831
99	0xbf7a31a9bc7c607c	-0.006395018608394417
100	0xbf92b18d2df6bf1e	-0.01825543015519237
101	0xbf669b6dcf0ca47c	-0.0027596611693252986
102	0xbf855b69908878fa	-0.010428261493015335
103	0x3f9218384a86c214	0.01767051653740921
104	0x3f5c21a95c22c7f1	0.0017170099168137799
105	0x3f85bbb7a5beccae	0.010611948724408595
106	0x3f7835cee854f6b6	0.005910690529444975
107	0xbf6658bbc9321e56	-0.002727858323456715
108	0xbf7cb6d82f11cdca	-0.0070103115732424535
109	0x3f5068d29aeb8da8	0.0010015541735633824
110	0x3f6621db367ad947	0.002701690816901667
111	0xbf69fd554ce62c58	-0.0031725564978777702
112	0xbf30bc0c4b9e2454	-0.00025534916095943283
113	0xbf89c4de67f30711	-0.012582528636247344
114	0xbf739e842557f6b7	-0.004789844698732607
115	0x3f75d516dac168e4	0.005330170894092687
116	0x3f8972ffe5303283	0.012426375562449415
117	0xbf73558bfe2b6b9c	-0.0047202557059006466
118	0x3f8de6310cb71632	0.014599211884056638
119	0xbf881199e42b0ef1	-0.011752321506157655
120	0xbf7c94a406221975	-0.006977692335686893
121	0xbf93928cf251b517	-0.019113733568180438
122	0x3f77c1ad18981691	0.005799938351179216
123	0x3f6b6aa3b9c74303	0.0033467481391443745
124	0x3f974f227152061a	0.02276281181958071
125	0xbf3957bafa051012	-0.00038669886454934064
126	0xbf8f1b2599c7c956	-0.015188497310167175
127	0x3f829371a546fcc2	0.009070289474833241
128	0x3f9341878ff3f710	0.018804662858193544
129	0x3f8d77b93ba662b6	0.014388510830756967
130	0x3f86b39d1f7d2e2c	0.011084773562877258
131	0x3f8a0d9f06c2d4c9	0.012721292871314198
132	0x3f85c685de7b0398	0.010632558681551704
133	0x3f7d5b2803ccbf29	0.0071670115546991564
134	0xbf921e2275e7965a	-0.017693079420402526
135	0x3f43b9c00937aa15	0.0006019771266754815
136	0xbf72cd91c70a9855	-0.004590577548389947
137	0x3f85c96fb3f13ed7	0.010638115576653657
138	0xbf94f53e7697c476	-0.02046678160508405
139	0xbf36c5e012b2e6e7	-0.0003474876454664225
140	0x3f592f8e292c1701	0.0015372169770570545
141	0x3f9317a19e6cab05	0.01864483384558026
142	0xbf8532345e2597ee	-0.010349663851865611
143	0xbf81e1a18268f7b7	-0.008731138031290315
144	0x3f8e141dbc055ad8	0.014686806011622464
145	0xbf541cebab90dda8	-0.0012275983301729219
146	0xbf6c1f3792288769	-0.003432854210829218
147	0x3f6e333f7a024fb7	0.0036865463044452834
148	0x3f53ff4893b9920a	0.0012205322990662703
149	0x3f77136069447095	0.005633713346721821
150	0xbf837bc779da63f8	-0.009513433843766336
151	0xbf82990e5982a605	-0.009080993754042596
152	0xbf828d3cc4c0a700	-0.009058451418315183
153	0xbf6e02ea844aee64	-0.0036634998708374045
154	0x3f529beaabed8af3	0.001135806247213264
155	0x3f89fad191cfc6a7	0.012685429823224693
156	0xbf59a608d790a0a4	-0.0015654646251821802
157	0x3f6eed6a5b5fca4c	0.003775317886714624
158	0xbf6dc15e295c4764	-0.0036322440236142162
159	0x3f6e016bbc3fa69b	0.003662786884878267
160	0x3f7a381ecd336047	0.006401176756490718
161	0xbf77ce386c92014f	-0.005811901480342676
162	0x3f1f4d9cfa15fa1f	0.00011941214190434216
163	0xbf93c53ed063a797	-0.019307118863174457
164	0xbf81ba54d347c7f8	-0.008656180093542062
165	0x3f64b1c127e29b12	0.0025261662077186242
166	0xbf75230f59769444	-0.005160388907289596
167	0xbf7f05b6b8d5d2b9	-0.007573808439123191
168	0x3f5146f5f7acb183	0.0010545160318527764
169	0x3f5a75efd1d61f24	0.0016150323857306382
170	0xbf74e18dc6bb29da	-0.005097917379041717
171	0xbf7be6cff02d1c0d	-0.006811916597889056
172	0x3f76c9130e12d975	0.005562853272911607
173	0xbf684c70f25f0744	-0.002966137503762763
174	0xbf67d62387836ff7	-0.0029097265179256443
175	0xbf68d1af759b671a	-0.003029673284669421
176	0xbf4f5d57edacca72	-0.0009571723306634596
177	0x3f6cd1fd507b6531	0.0035180995508709225
178	0xbf6156c8893e41cf	-0.0021165768357109603
179	0xbf85e5df92fcb9a0	-0.01069235484427794
180	0x3f7698964ab4f7cd	0.005516612126767084
181	0xbf8a90229707ad28	-0.012970228418416399
182	0x3f5e0b8fbbcd20c4	0.0018338111542153682
183	0x3f7cfa4a54c58b1f	0.0070746329841735725
184	0x3f847ef6c0275ee3	0.01000778936297259
185	0x3f7c524c96ca0cc4	0.006914424110280485
186	0x3f77740be9b0ec3c	0.005725904974549553
187	0xbf653d166eb234c0	-0.002592605412763932
188	0xbf5f1f55bbd6caee	-0.0018995606654754154
189	0x3f3ca2618e035a3f	0.0004369247599362059
190	0xbf8533f21db10185	-0.010352984934912221
191	0x3f624cb75911aee5	0.0022338467611485607
192	0x3f6758776412f793	0.002849801240329472
193	0xbf77c80f871c6540	-0.0058060270837583805
194	0xbf6e64989e10062a	-0.0037100773629397303
195	0x3f4cd5484145a05c	0.0008799174125160391
196	0xbf530f7b8dd66912	-0.0011633593161151684
197	0x3f8d57164ce04d90	0.01432626173121923
198	0x3f6a93be6d5acf1f	0.003244277885494542
199	0x3f8039071199a98f	0.007921271538368994
200	0x3f80cb0108cac3ff	0.008199699478923959
201	0xbf64c52a5b908fd8	-0.0025354220674831222
202	0x3f7c85f20bc8c777	0.0069636778758183
203	0xbf301c74e85c362c	-0.00024583677473874704
204	0x3f76238ae5683b1b	0.005404989779448833
205	0x3f866d628888e477	0.010950822631558872
206	0x3f84879d71e48368	0.010024290121295201
207	0x3f659793af0bbb2d	0.002635754055851611
208	0x3f8cf004d3d5493f	0.014129674639353438
209	0xbf773725e8bc031f	-0.005667827684874976
210	0xbf87b905a1bf4ea8	-0.011583370207439117
211	0x3f789012480c0e9e	0.0059967722052111355
212	0xbf82c01ce37c4b9a	-0.00915548867445697
213	0x3f90c83a4ef30c38	0.01638880831593445
214	0x3f830c4231111d02	0.009300725099946398
215	0x3f526fed942586c8	0.0011253185371846042
216	0xbf7fc61e608460df	-0.007757300052866094
217	0x3f4863d64788616e	0.0007443233762983012
218	0xbf74f65f21eb7abc	-0.00511777077801295
219	0x3f81163ef532fba1	0.008343211992153434
220	0x3f82c08e21cd2550	0.00915633240369354
221	0x3f9e2c2ebc384e76	0.029465418088945282
222	0xbf874c64b59a3752	-0.011376177589479095
223	0x3f77e85beae096ad	0.005836829235737956
224	0xbf816e8b5a645ec7	-0.008511627861067862
225	0xbf7dcd6a7703d687	-0.007275977972530995
226	0xbf73320dd15d19f5	-0.004686407066236677
227	0xbf7dac5e1f39effc	-0.007244460739112665
228	0x3f8c46c73293bbd0	0.013806873541822556
229	0x3f7999e839803195	0.0062502928995055345
230	0xbf7eda2b2b9f36bc	-0.007532280573242008
231	0xbf6f84cb624a2e3f	-0.0038475010245002934
232	0xbf705ee8724a3095	-0.003996761316226967
233	0xbf9744dc7b128b38	-0.022723622333283816
234	0xbf6aa17f26e63e4d	-0.0032508357464349547
235	0xbf885c49b0fba0d6	-0.011894775117483308
236	0x3f949e031229ea3f	0.0201340179287206
237	0xbf6cb3b8713ca5a8	-0.0035036661519327224
238	0xbf7cfdd522192ce8	-0.007078011085080528
239	0x3f6e02b1bebf1385	0.0036633941253704804
240	0xbf6c3d0d523861da	-0.0034470806292683344
241	0xbf708c3aec1bfec6	-0.004039983906977523
242	0x3f5d91ab714f69d0	0.0018047498936001223
243	0x3f952aa569b46ea5	0.020670494629583164
244	0x3f78470f06e94fac	0.005927141856393019
245	0xbf70f25167def28f	-0.004137342444604854
246	0x3f8593dc4e874f6e	0.010535927912236533
247	0x3f57509892b3ab0f	0.001423024174807611
248	0xbf8329c942c24f7f	-0.009357044553588654
249	0x3f8b0971804b5447	0.013201605537157003
250	0xbf490e8305a7993a	-0.0007646693950931545
251	0x3f6a52dc244b41f0	0.00321333881797891
252	0xbf80c9dc108cd83f	-0.008197516684600113
253	0xbf98e99ea11c92cc	-0.024328688224289505
254	0xbf93f9e23b145246	-0.019507918220442975
255	0xbf81aad4e5cc1811	-0.00862661672864465

b1 f8 [1, 128]
0	0xbf3266d9839891c1	-0.0002807885208276039
1	0xbf32a7b2016a7635	-0.0002846536239447834
2	0x3f337e3f841bb70b	0.00029744196591151355
3	0x3f3bca448b7f73d7	0.00042404340228846315
4	0xbf07a6739745e58e	-4.5109179072032245e-05
5	0xbf388efdd9ff5f79	-0.0003747339014785671
6	0x3f0daa2f23a16775	5.658108098378817e-05
7	0x3f09bacce346b8d6	4.907548683107255e-05
8	0xbf2c90e47848dcdd	-0.000217941178691317
9	0x3f3214583bab3eff	0.00027587083938572504
10	0xbf319dbb0f997bf0	-0.0002688008968103053
11	0x3f2ed28ed811a609	0.0002351569528713934
12	0xbf47f7da97f9b01d	-0.0007314507819962155
13	0x3f4371752c5320c9	0.0005933591970910475
14	0xbf3117a1b7df6150	-0.0002608079738570983
15	0xbf3b0f2dc099104b	-0.00041289202690486933
16	0xbedc17da74c2e833	-6.6979353727185125e-06
17	0xbf46fc1cd5cfc44e	-0.0007014408871538565
18	0xbf46ef6efbae2118	-0.0006999294194978438
19	0x3f3e72f3cd9af6a2	0.0004646153662227569
20	0xbf39a759b5d9454d	-0.00039144458955771706
21	0x3f33df2ce38ae0f8	0.00030321927946942674
22	0xbf3fb3e69cf61498	-0.00048374538615576215
23	0xbf45120bce6bdaeb	-0.0006430204055892485
24	0x3f140769c0ebc975	7.64044091104194e-05
25	0xbf3fbfb6e7dd2a5a	-0.0004844495341457582
26	0xbf4b43a6f31856c8	-0.0008320393737359594
27	0x3f38857da967058a	0.00037416761315619467
28	0x3f36c604ed32f714	0.00034749622609441086
29	0xbf44605865c854d3	-0.0006218368176315277
30	0x3f29072d48287352	0.0001909487510411098
31	0xbf2f465325ece132	-0.0002386070727540351
32	0x3f26c40f72bc1ee2	0.00017368973328068306
33	0x3f3c54edd4704c01	0.00043230825798551425
34	0x3f41af88815d78fb	0.0005397240190452563
35	0x3f4a76049acaf70d	0.0008075258716286629
36	0xbf37ff86d70542f4	-0.00036618272772152784
37	0x3f408599554ee4d5	0.000504207486861886
38	0xbf42dc300049d667	-0.0005755648022176097
39	0x3f33a0e52fd25ea4	0.0002995070970625935
40	0x3f48934a9e526463	0.0007499803874849827
41	0xbf1d223306a80a55	-0.00011113583028791428
42	0xbf2fe554bd4fa7cb	-0.0002433458272713115
43	0xbf0ea19680f9cfa4	-5.842438269790189e-05
44	0x3f3f0bc9d75a5ebe	0.00047372510685182365
45	0x3f26d9cf6a67fa18	0.00017433793000516738
46	0x3f407c748d945395	0.0005031174761450536
47	0xbf362b8d65abd973	-0.0003382892806905936
48	0x3f364916b94d0fdd	0.00034004978924806283
49	0x3f4d0246cf200437	0.0008852811572525103
50	0x3f3a15c180743b4d	0.000398025266307768
51	0x3f4406033df8b90b	0.0006110683279468022
52	0xbf418c4f8a49e2fe	-0.0005355251674493409
53	0xbf46346d551bb41f	-0.0006776365136979024
54	0xbf4ad46cdc3e4fe0	-0.0008187800926742171
55	0x3f27051cfb0dc490	0.00017562845962574127
56	0x3f4aa63ccb901b08	0.0008132740832714489
57	0xbf3aac78d2760859	-0.0004070086456168291
58	0xbf32ca7fcd3b71fe	-0.0002867280975189789
59	0xbf3b0a3e1dbb0180	-0.00041259781367488507
60	0x3f3424980ab74008	0.0003073569484657317
61	0x3f2f68aca8296880	0.00023963077190353524
62	0x3f294b3ec4c943e8	0.0001929773446982801
63	0x3f35e367da34a806	0.0003339890046897279
64	0x3f31c4a5206052cb	0.0002711203709407194
65	0xbf37d18378396246	-0.000363440129353108
66	0x3f04084a0c89e095	3.820873240995105e-05
67	0xbee722d4d83caeba	-1.1032133222586285e-05
68	0xbf073a64d4770163	-4.4304086766813374e-05
69	0xbf49f9498d85f533	-0.0007926568169264514
70	0x3f1c72b321ae9048	0.00010852068264327705
71	0xbf316e93abef4adb	-0.0002659903074661415
72	0xbf29d3a3135e5b6c	-0.00019704213781032308
73	0x3f029945007b76e3	3.547422244108507e-05
74	0xbf34a4fd647b2dd1	-0.0003150099405330983
75	0x3f411c6f51140e63	0.0005221885241159626
76	0xbf397e8adc7d9fe1	-0.0003890122429681658
77	0x3f49b9ffa30484c9	0.000785112211847538
78	0xbf227de62f8cfedf	-0.00014108118900856608
79	0xbef17f1f914725ae	-1.6686034614276576e-05
80	0x3f35cbb1c9c09f03	0.00033257570771859385
81	0xbf373cf88a16637b	-0.0003545862947134587
82	0x3f07d8cb2b290288	4.5484256947951834e-05
83	0xbf2f96f3de2fe202	-0.00024100996878907715
84	0xbf4c3e80818780d1	-0.000861943003709365
85	0x3f20ed8e8a822073	0.0001291500568678692
86	0x3f418433a251fd87	0.0005345584983302156
87	0xbf2c6cabcce71e1b	-0.0002168616978919104
88	0x3f285722f32152b7	0.0001857023394814716
89	0x3f3602309c430792	0.0003358238866547565
90	0xbf22204c81ad9696	-0.000138291682414128
91	0x3f4051dfc6a6394e	0.0004980414062616763
92	0x3f2b5e768baacc6c	0.00020880887116944984
93	0xbf4b7e1fbbc3ca26	-0.0008390097569004925
94	0xbf3a1e926bcd6747	-0.00039855074628790784
95	0xbf2fd6df2150a396	-0.00024291490322639044
96	0x3f015b9a3545cbbc	3.310741763842088e-05
97	0xbf41efb1fa1ce731	-0.0005473727253282099
98	0xbf35a5649c23daf1	-0.0003302927617733617
99	0xbf3a9fab3d29d828	-0.00040624552381218976
100	0x3f24cc47fbffb1f1	0.00015867594447573034
101	0xbf517fde68fa6be8	-0.0010680839513159627
102	0x3f18c8de39058d10	9.454590167972212e-05
103	0x3f3a27664fe26aa3	0.00039907691815136754
104	0xbf4daf96c957e295	-0.0009059416067308141
105	0x3f393f2e21982b4a	0.0003852355599468961
106	0x3f07187db05fb01d	4.4051490519198185e-05
107	0xbf43e6337c7e04b0	-0.0006072760961474324
108	0x3f3c5c0fa09b7351	0.000432733359600414
109	0xbf02889f92b16940	-3.535019853791394e-05
110	0xbf4bc8229300fb53	-0.0008478325671673427
111	0xbf420fc0b9589d53	-0.0005511942897031087
112	0xbf36cedcdf69c6ce	-0.0003480233421334467
113	0xbf375faad6036061	-0.0003566543655444451
114	0xbf3aaae00decb42c	-0.0004069134719653668
115	0x3f1b46c0bdd856dc	0.00010405112649211227
116	0xbefb24d70a16c344	-2.5886446228976014e-05
117	0xbf3c99d525974094	-0.00043641523151639297
118	0x3f2d513386fda47c	0.00022367242808777113
119	0xbf2814850648d521	-0.00018371700129341757
120	0x3f42dc595096422e	0.0005755840403925455
121	0x3f3667a5ad518020	0.00034187121247519943
122	0x3f29724b26be746d	0.00019414107680129929
123	0xbf216ee4ea006251	-0.00013300461159883534
124	0xbf25c7bf9492ca01	-0.00016617025020122803
125	0xbf449bee632336fb	-0.0006289400100969173
126	0xbf3bb88e1bc488f6	-0.00042298764653216027
127	0x3f2c3e78de8dab40	0.00021548486190722284

W2 f8 [128, 10]
0	0xbf4f0485f1a1d156	-0.0009465841315106454
1	0x3f8f380bb7b97c84	0.0152436175769124
2	0x3f7f39fc44c3dda1	0.007623658584854282
3	0x3f528f029c5418c0	0.0011327291006764523
4	0xbf8022d6b57d2500	-0.007878949559783965
5	0xbf58844e72d883d7	-0.0014963880634086735
6	0x3f3fa1dcfdd85d32	0.0004826702623587808
7	0x3f6de6569be03f1c	0.0036498729305164523
8	0x3f8197a6547ed8ca	0.00859003014907635
9	0x3f89b89ca45c44d1	0.012559150472528565
10	0xbf7bdc60fba3d686	-0.006801966514321861
11	0x3f9b1a5209e9e22d	0.026467592101172045
12	0xbf524fc00bd3f55c	-0.001117646737213227
13	0x3f8691223d9073b0	0.011019008163254046
14	0xbf9bad8f31bd534e	-0.027029263888226844
15	0xbf877945295bab10	-0.011461773228310018
16	0x3f8750a85d062166	0.011384311045518469
17	0xbf8f78ea16f5b412	-0.015367344690014693
18	0xbf5cc22fbead2933	-0.0017552820451834483
19	0x3f7d4f49a6e39998	0.00715569277074337
20	0x3f8447fa5e6cb15a	0.00990291214619592
21	0x3f76c8e5c576d856	0.005562684578242457
22	0xbf6303044ecceb53	-0.002320774472904055
23	0xbf8bd94bbde01320	-0.013598052722963383
24	0x3f71663111adc975	0.004247848201759265
25	0x3f73a2cb2aecf831	0.004793923972838996
26	0xbf8877d4cfe4bfb2	-0.011947310060889869
27	0x3f81c46b1d62024b	0.008675419649308532
28	0x3f9311f59649d159	0.01862319688594147
29	0xbf6e709b59517858	-0.0037158044965926278
30	0x3f6fcba36b480d21	0.0038812820223498444
31	0xbf6f8740f5e18ee6	-0.0038486737021673377
32	0x3f586d9ae8714e6d	0.0014909756444198244
33	0x3f79d49d0ed06abb	0.006306279666228927
34	0x3f6b99cf69d6c376	0.0033692408603304648
35	0xbf873d3ca5d99392	-0.011347268878304981
36	0x3f6cb3118ee4e58e	0.003503355305977513
37	0xbf61ab9c2066b542	-0.002157025274945796
38	0xbf0afc8733a34bab	-5.147254565120799e-05
39	0x3f88b8074d7b47a4	0.01206975655751192
40	0xbf8960ce03d57f3d	-0.01239167164993626
41	0xbf6748d4cf0a93db	-0.0028423458500861204
42	0xbf6123e8ff928b1d	-0.002092318606245937
43	0x3f83776e2c7ca6ec	0.009505139095910185
44	0xbf763e3a359c546d	-0.005430438404592325
45	0x3f86579e9671405d	0.010909308401238766
46	0x3f7aac01f8fed977	0.006511695581073665
47	0x3f7644639ddd8042	0.005436314704496738
48	0x3f85cadf72aa4669	0.010640855490495942
49	0xbf6ce6fac956fb95	-0.003528108422613705
50	0x3f97518181ffa5cb	0.02277185779522543
51	0xbf916a5666e9effd	-0.017007207900391553
52	0xbf532dfd0f81b404	-0.0011706324858338233
53	0xbf6826dbabed6f01	-0.0029482164822364214
54	0xbf82ac418f9e9386	-0.00911761493245834
55	0xbf7bcb8dec00ab59	-0.006785921461452593
56	0x3f911d3bf62becd0	0.016713082218285547
57	0x3f8dfb8103afaa2a	0.014639861989015197
58	0xbf6f5285c565ebc3	-0.0038235295025379214
59	0xbf8a44f70fabcc11	-0.01282685295652722
60	0x3f62ada2c9682177	0.0022800616673103696
61	0x3f6721fc83736dfd	0.0028238231567294645
62	0xbf70018a28bb48de	-0.003907718357100102
63	0x3f65cf16ddea9dee	0.0026622244470961764
64	0x3f93cfc0882e9053	0.019347198783762853
65	0x3f786c6fafbc8269	0.005962787890695689
66	0x3f8d3fa2afe7cffb	0.01428153132744824
67	0xbf80afe9d07f5486	-0.00814802806409377
68	0xbf4dacf02e0443fe	-0.0009056256058405097
69	0xbf627c414bc51f16	-0.0022565150558512366
70	0x3f4f9ed24e73049e	0.0009649779211927838
71	0x3f81a0883def14c0	0.008606972112725209
72	0xbf68448cb23e50b7	-0.0029623744939702673
73	0x3f7412fde7fa4635	0.004900924511859685
74	0xbf7afb0448aed1a4	-0.0065870444622543635
75	0xbf7b9bd4d92cc5ec	-0.006740409315896905
76	0x3f850cedb0a455f8	0.0102785653621522
77	0xbf76c1365353fd57	-0.005555355271325744
78	0xbf575098a028e2d5	-0.0014230242237671016
79	0xbf90abe0375bf2d2	-0.01628065431485732
80	0x3f8649cff10e9a05	0.01088297323606203
81	0x3f7f2360cfe0c4b0	0.007602098628965923
82	0xbf76e35b2795a588	-0.005587917397272497
83	0x3f3d17fec807e80b	0.00044393511055285166
84	0x3f3aac55423e9a0d	0.0004070003653801342
85	0xbf49156b1b9aface	-0.0007654927241772193
86	0x3f9541f4b5cf1d03	0.020759414288275668
87	0x3f4807400c0da4b1	0.0007332861642740577
88	0x3f6c6f1943e663cd	0.003470944734726511
89	0xbf8628e94716ad5c	-0.010820219499541643
90	0xbf82bf22e91d19a8	-0.009153626193108291
91	0xbf69fa2d7759c895	-0.003171051789473254
92	0xbf6953cb6ad347f6	-0.0030917141908526303
93	0x3f86d517f8c603f7	0.0111486313624045
94	0x3f7d43b9ba61aa20	0.007144666195112254
95	0xbf64fbb9089d7119	-0.0025614370287440178
96	0xbf4f76c90d4b1c9c	-0.0009602052401413044
97	0x3f7104b889519278	0.004154892773929768
98	0xbf6da60c75e5a72b	-0.003619217240317681
99	0x3f78324f8a8170aa	0.00590735502927601
100	0x3f81bc4d17fcb9d9	0.00865993718579443
101	0x3f727467ecd66cd3	0.004505544622044516
102	0x3f8f01309805e1b4	0.01513898815095236
103	0x3f629fd40bb50a4f	0.0022734776991069415
104	0xbf8a87b15d32fb8f	-0.012954126030647632
105	0x3f82f50ffd9c38ff	0.00925648205477758
106	0x3f88519687bcb79a	0.011874366776819124
107	0xbf600c151226e724	-0.001958886293519495
108	0x3f9573aa2316c214	0.020949037925392558
109	0x3f79a3a32c6c86da	0.00625957240734617
110	0x3f6bb2f35930a938	0.003381228723374676
111	0xbf6f6585fb2b035a	-0.00383258979977123
112	0xbf70c728b4717964	-0.004096182826371784
113	0x3f8324a8874558b3	0.009347263935222427
114	0xbf63c3272ca8ec2b	-0.0024123921514536315
115	0xbf6a9e645b4a3bcf	-0.0032493553247330063
116	0xbf71e5db5465809c	-0.004369599110163016
117	0xbf810c1db449a6f2	-0.00832389074749382
118	0x3f91b8dbc7f7b7b2	0.017306741790825426
119	0xbf8210af79d4d5c7	-0.008820887475489493
120	0x3f519ad9e20cda48	0.0010745170367961899
121	0x3f9e309c9b1d99e1	0.02948231407881419
122	0x3f6561015853032e	0.0026097322721344773
123	0x3f669fa945137764	0.00276167927277886
124	0x3f7dc7b694fe582d	0.007270539484940425
125	0x3f881caf6ec0115e	0.011773462836580147
126	0x3f758c95c282d238	0.0052610254280592225
127	0x3f849a85af21fa0e	0.010060352713705558
128	0x3f969ff3a0dd610c	0.022094542210966003
129	0x3f84518baee0ae7c	0.009921160959570623
130	0x3f21af5f297f64bf	0.000134926191775608
131	0x3f82fd3461f59a5d	0.009272011985285983
132	0x3f8baa8ba153f164	0.013508883343541007
133	0x3f467d3c0823fcd7	0.000686315834428709
134	0xbf81e8069bbb68ec	-0.008743335368695836
135	0xbf907d97c2a94749	-0.01610409856431908
136	0x3f73b2c8b465800a	0.004809173586494362
137	0x3f6a65a151cbd73c	0.0032222891589936114
138	0xbf6c078b775489a8	-0.0034215663860248276
139	0x3f73756721d1bb15	0.0047506359670552905
140	0x3f878ebaa82747af	0.01150270295775954
141	0xbf5a1dcc3f1a8eb2	-0.0015940184206692351
142	0x3f81c25c90dfc09f	0.008671496554569834
143	0x3f4f30f547dee8db	0.0009518811855209435
144	0xbf753623938ac9cd	-0.005178584070267123
145	0xbf91c2c366ba09c2	-0.017344525475445634
146	0x3f7398ccc1bf1c11	0.0047843931496976
147	0x3f88fef104da94f7	0.01220501228392344
148	0x3f79c371dc895e88	0.006289906283732834
149	0xbf91e17c836878e6	-0.017461724777711483
150	0x3f5b84f2ff81bf52	0.0016796467807828797
151	0x3f70c42e65dd7272	0.0040933430117006
152	0xbf8300250475e4d3	-0.009277619551300386
153	0xbf7749d4920bc262	-0.005685644486888993
154	0x3f746f23b37c6786	0.0049888033461459366
155	0xbf52d8152a9099dd	-0.0011501509382100185
156	0xbf6c6f8b37534bdd	-0.003471156984781383
157	0xbf4111be42bd07b8	-0.0005209139830883924
158	0xbf71dac72c740463	-0.004359033605625037
159	0x3f45405a443de38d	0.000648540568803134
160	0xbf97943c5bef3442	-0.023026412116269997
161	0xbf72c0106f049aa9	-0.004577697938919081
162	0xbf417029355eb969	-0.0005321694577469618
163	0xbf7c7445f6d14153	-0.0069468243573996445
164	0x3f780438e2f3a676	0.005863401616105093
165	0x3f56de0e12fde9e0	0.001395715469668539
166	0x3f83b69fb620fd30	0.009625671144134346
167	0x3f9ca71e9994e572	0.027981260417822403
168	0x3f92c5c63f5bc81d	0.018332574479195885
169	0xbf911a5bcae27565	-0.016702112444013113
170	0xbf760ae361eb5f18	-0.005381477558976909
171	0xbf7efb4c7554cd58	-0.007563875832875176
172	0x3f4de3acbf8856b8	0.0009121507164901654
173	0xbf7cbee5f5e844f0	-0.007017992290017747
174	0x3f1f519f34ee61c4	0.00011947187634431868
175	0xbf87b25e0209b3af	-0.011570677220527374
176	0x3f5ddb5ae33d8d00	0.001822317845800836
177	0xbf6e1ff712a1ac2c	-0.003677351535818404
178	0xbf58359854e9b206	-0.0014776218046349556
179	0xbf5fc4a0d0614bee	-0.0019389696549481045
180	0xbf89e0b6a8a4b7e3	-0.01263563825758846
181	0x3f7c1f50e77a5e22	0.006865802795480687
182	0x3f8774ad5e790f75	0.011453012891372552
183	0xbf67775635cb2fc2	-0.0028645213882096685
184	0x3f944518781d3273	0.01979482873075473
185	0xbf213f4cf069c9b5	-0.00013158621023341496
186	0x3f734ef337a3d2b2	0.004713964526889812
187	0xbf639eb6530d639f	-0.002395015814198278
188	0xbf79f53874aece0f	-0.006337376146734921
189	0x3f745ce2316ab65a	0.004971393171826566
190	0x3f87f0448e3ade09	0.011688743200791956
191	0xbf842a4bf05da1b0	-0.009846299431686883
192	0x3f7a9d4fe797efe4	0.0064976807857384
193	0xbf666cc9728af1c0	-0.0027374205131691365
194	0xbf75eea4d9a3ad30	-0.0053545417269831724
195	0xbf6d373f9873d8d1	-0.003566383562083699
196	0xbf7d42384e4d35ad	-0.007143230385577776
197	0xbf65a574c7eaf485	-0.0026423722150342188
198	0xbf83012d06705b52	-0.009279586562156137
199	0x3f796c3f99035e42	0.006206749371095168
200	0x3f908959f7987447	0.016148954140693197
201	0xbf90955b6fe2ea2f	-0.016194752410891574
202	0x3f776232c62fcc5e	0.00570888360651897
203	0x3f5c7e7e2366abc2	0.0017391425913994983
204	0x3f796d2b22dc191e	0.006207626820247362
205	0x3f7a1c49c6d8b32c	0.0063746339706483406
206	0xbf6d1f5ed05fded0	-0.003554997619172308
207	0x3f908e3f9b83b4fc	0.016167634837008102
208	0xbf97d4cf2947d374	-0.023272740263525063
209	0x3f783ac96f8ba1d9	0.005915438516901316
210	0x3f90562352bb4068	0.01595359032108981
211	0xbf916c2213fc279c	-0.017014057607446995
212	0xbf92d1dac1380cf6	-0.018378656428478878
213	0xbf79854f7588b899	-0.006230650317361385
214	0xbf6acfd3711c0754	-0.0032729272578543665
215	0xbf6d2b6c63d4b08b	-0.0035607449523436577
216	0x3f6a391e8ba9f465	0.0032010647385605656
217	0x3f8457e6d3d1051e	0.009933284129263028
218	0x3f772888c399174a	0.005653890833462525
219	0xbf712ef5939a2d49	-0.004195174487573291
220	0xbf67887ec88c89f1	-0.002872703193490305
221	0xbf9522381f47f222	-0.020638348492854182
222	0xbf9caa06ed1fe0c4	-0.027992351744587265
223	0xbf92ca90b16a29d7	-0.018350849941762917
224	0xbf692719a859e047	-0.0030704022527139638
225	0x3f6ebade56828478	0.0037512152230907946
226	0x3f80619e6c5ac9a4	0.007998693162652178
227	0xbf58714d8a51a8d6	-0.0014918572644782488
228	0x3f13940b3aec197e	7.468527358520623e-05
229	0xbf81917a53ef23f2	-0.008578258215395682
230	0x3f81ecdf44deffe9	0.00875257901122946
231	0xbf58b24dfca273e2	-0.0015073548879975742
232	0xbf87c9e7409933b9	-0.011615568789375407
233	0x3f8e932ed2068f2e	0.014929166588280997
234	0x3f240c4f9364179b	0.00015295478232973673
235	0xbf691ac188b940a3	-0.0030645160639225107
236	0x3f912a16732d5586	0.016762114314891295
237	0x3f869089081b2e02	0.011017866668587398
238	0xbf79a5b8384c36fe	-0.006261558159861512
239	0x3f879797469dcf1e	0.011519605486433767
240	0x3f76f68323bda00e	0.0056061861649610144
241	0x3f94faf68d5359e3	0.020488598228291976
242	0xbf8ddecc1528626d	-0.01458510818069777
243	0xbf62a3df6401d539	-0.0022754061793032435
244	0x3f4eeb07229f517a	0.0009435448494011088
245	0x3f5f5c029bd3eee7	0.0019140267825709602
246	0x3f3000dea60132a2	0.00024419246438326704
247	0x3f8259e553abcef0	0.008960525146427284
248	0xbf9527be041ce148	-0.020659417153383403
249	0xbf81c59f72f2472d	-0.008677716918359469
250	0xbf6254814efeb248	-0.0022375608022769146
251	0xbf96b1e504af1d94	-0.022162989054576324
252	0x3f66a2625f243411	0.0027629777260984663
253	0xbf5c2e9611cb2b90	-0.0017200913927577256
254	0x3f6577c6a933d0ca	0.002620590219175244
255	0xbf87fd8b8bf7a7c9	-0.011714067658392129

b2 f8 [1, 10]
0	0xbf77ba45c9088506	-0.005792877768301402
1	0x3f75a37f3c4366ee	0.005282876027388401
2	0x3f79e797bd5d8745	0.0063243796665533635
3	0xbf848214ed55f9e8	-0.010013736241259744
4	0xbf736a0fae13b520	-0.004739819765047032
5	0xbf612a8aee4ca7f8	-0.0020954812520317355
6	0x3ed8bcb3315f14ff	5.897786442281673e-06
7	0xbf713e997d3b5fc9	-0.004210090224397286
8	0x3f7365d0c5c3177b	0.004735770719156092
9	0x3f8582a3acfcc219	0.010503081051497042
